…
test_initialization: false
I0613 17:29:41.490437  1860 solver.cpp:91] Creating training net from net file: ./model/train_val.prototxt
I0613 17:29:41.492946  1860 net.cpp:58] Initializing net from parameters: 
state {
  phase: TRAIN
}
layer {
  name: "data"
  type: "ImageData"
  top: "data"
  top: "label"
  include {
    phase: TRAIN
  }
  transform_param {
    scale: 0.0078125
    mirror: true
    mean_value: 127.5
    mean_value: 127.5
    mean_value: 127.5
  }
  image_data_param {
    source: "./data/anno.txt"
    batch_size: 128
    shuffle: true
  }
}
layer {
  name: "conv1"
  type: "Convolution"
  bottom: "data"
  top: "conv1"
  convolution_param {
    num_output: 64
    kernel_size: 3
    stride: 2
    weight_filler {
      type: "xavier"
    }
  }
}
layer {
  name: "relu_conv1"
  type: "ReLU"
  bottom: "conv1"
  top: "conv1"
}
layer {
  name: "pool1"
  type: "Pooling"
  bottom: "conv1"
  top: "pool1"
  pooling_param {
    pool: MAX
    kernel_size: 3
    stride: 2
  }
}
layer {
  name: "fire2/squeeze1x1"
  type: "Convolution"
  bottom: "pool1"
  top: "fire2/squeeze1x1"
  convolution_param {
    num_output: 16
    kernel_size: 1
    weight_filler {
      type: "xavier"
    }
  }
}
layer {
  name: "fire2/relu_squeeze1x1"
  type: "ReLU"
  bottom: "fire2/squeeze1x1"
  top: "fire2/squeeze1x1"
}
layer {
  name: "fire2/expand1x1"
  type: "Convolution"
  bottom: "fire2/squeeze1x1"
  top: "fire2/expand1x1"
  convolution_param {
    num_output: 64
    kernel_size: 1
    weight_filler {
      type: "xavier"
    }
  }
}
layer {
  name: "fire2/relu_expand1x1"
  type: "ReLU"
  bottom: "fire2/expand1x1"
  top: "fire2/expand1x1"
}
layer {
  name: "fire2/expand3x3"
  type: "Convolution"
  bottom: "fire2/squeeze1x1"
  top: "fire2/expand3x3"
  convolution_param {
    num_output: 64
    pad: 1
    kernel_size: 3
    weight_filler {
      type: "xavier"
    }
  }
}
layer {
  name: "fire2/relu_expand3x3"
  type: "ReLU"
  bottom: "fire2/expand3x3"
  top: "fire2/expand3x3"
}
layer {
  name: "fire2/concat"
  type: "Concat"
  bottom: "fire2/expand1x1"
  bottom: "fire2/expand3x3"
  top: "fire2/concat"
}
layer {
  name: "fire3/squeeze1x1"
  type: "Convolution"
  bottom: "fire2/concat"
  top: "fire3/squeeze1x1"
  convolution_param {
    num_output: 16
    kernel_size: 1
    weight_filler {
      type: "xavier"
    }
  }
}
layer {
  name: "fire3/relu_squeeze1x1"
  type: "ReLU"
  bottom: "fire3/squeeze1x1"
  top: "fire3/squeeze1x1"
}
layer {
  name: "fire3/expand1x1"
  type: "Convolution"
  bottom: "fire3/squeeze1x1"
  top: "fire3/expand1x1"
  convolution_param {
    num_output: 64
    kernel_size: 1
    weight_filler {
      type: "xavier"
    }
  }
}
layer {
  name: "fire3/relu_expand1x1"
  type: "ReLU"
  bottom: "fire3/expand1x1"
  top: "fire3/expand1x1"
}
layer {
  name: "fire3/expand3x3"
  type: "Convolution"
  bottom: "fire3/squeeze1x1"
  top: "fire3/expand3x3"
  convolution_param {
    num_output: 64
    pad: 1
    kernel_size: 3
    weight_filler {
      type: "xavier"
    }
  }
}
layer {
  name: "fire3/relu_expand3x3"
  type: "ReLU"
  bottom: "fire3/expand3x3"
  top: "fire3/expand3x3"
}
layer {
  name: "fire3/concat"
  type: "Concat"
  bottom: "fire3/expand1x1"
  bottom: "fire3/expand3x3"
  top: "fire3/concat"
}
layer {
  name: "pool3"
  type: "Pooling"
  bottom: "fire3/concat"
  top: "pool3"
  pooling_param {
    pool: MAX
    kernel_size: 3
    stride: 2
  }
}
layer {
  name: "fire4/squeeze1x1"
  type: "Convolution"
  bottom: "pool3"
  top: "fire4/squeeze1x1"
  convolution_param {
    num_output: 32
    kernel_size: 1
    weight_filler {
      type: "xavier"
    }
  }
}
layer {
  name: "fire4/relu_squeeze1x1"
  type: "ReLU"
  bottom: "fire4/squeeze1x1"
  top: "fire4/squeeze1x1"
}
layer {
  name: "fire4/expand1x1"
  type: "Convolution"
  bottom: "fire4/squeeze1x1"
  top: "fire4/expand1x1"
  convolution_param {
    num_output: 128
    kernel_size: 1
    weight_filler {
      type: "xavier"
    }
  }
}
layer {
  name: "fire4/relu_expand1x1"
  type: "ReLU"
  bottom: "fire4/expand1x1"
  top: "fire4/expand1x1"
}
layer {
  name: "fire4/expand3x3"
  type: "Convolution"
  bottom: "fire4/squeeze1x1"
  top: "fire4/expand3x3"
  convolution_param {
    num_output: 128
    pad: 1
    kernel_size: 3
    weight_filler {
      type: "xavier"
    }
  }
}
layer {
  name: "fire4/relu_expand3x3"
  type: "ReLU"
  bottom: "fire4/expand3x3"
  top: "fire4/expand3x3"
}
layer {
  name: "fire4/concat"
  type: "Concat"
  bottom: "fire4/expand1x1"
  bottom: "fire4/expand3x3"
  top: "fire4/concat"
}
layer {
  name: "fire5/squeeze1x1"
  type: "Convolution"
  bottom: "fire4/concat"
  top: "fire5/squeeze1x1"
  convolution_param {
    num_output: 32
    kernel_size: 1
    weight_filler {
      type: "xavier"
    }
  }
}
layer {
  name: "fire5/relu_squeeze1x1"
  type: "ReLU"
  bottom: "fire5/squeeze1x1"
  top: "fire5/squeeze1x1"
}
layer {
  name: "fire5/expand1x1"
  type: "Convolution"
  bottom: "fire5/squeeze1x1"
  top: "fire5/expand1x1"
  convolution_param {
    num_output: 128
    kernel_size: 1
    weight_filler {
      type: "xavier"
    }
  }
}
layer {
  name: "fire5/relu_expand1x1"
  type: "ReLU"
  bottom: "fire5/expand1x1"
  top: "fire5/expand1x1"
}
layer {
  name: "fire5/expand3x3"
  type: "Convolution"
  bottom: "fire5/squeeze1x1"
  top: "fire5/expand3x3"
  convolution_param {
    num_output: 128
    pad: 1
    kernel_size: 3
    weight_filler {
      type: "xavier"
    }
  }
}
layer {
  name: "fire5/relu_expand3x3"
  type: "ReLU"
  bottom: "fire5/expand3x3"
  top: "fire5/expand3x3"
}
layer {
  name: "fire5/concat"
  type: "Concat"
  bottom: "fire5/expand1x1"
  bottom: "fire5/expand3x3"
  top: "fire5/concat"
}
layer {
  name: "pool5"
  type: "Pooling"
  bottom: "fire5/concat"
  top: "pool5"
  pooling_param {
    pool: MAX
    kernel_size: 3
    stride: 2
  }
}
layer {
  name: "fire6/squeeze1x1"
  type: "Convolution"
  bottom: "pool5"
  top: "fire6/squeeze1x1"
  convolution_param {
    num_output: 48
    kernel_size: 1
    weight_filler {
      type: "xavier"
    }
  }
}
layer {
  name: "fire6/relu_squeeze1x1"
  type: "ReLU"
  bottom: "fire6/squeeze1x1"
  top: "fire6/squeeze1x1"
}
layer {
  name: "fire6/expand1x1"
  type: "Convolution"
  bottom: "fire6/squeeze1x1"
  top: "fire6/expand1x1"
  convolution_param {
    num_output: 192
    kernel_size: 1
    weight_filler {
      type: "xavier"
    }
  }
}
layer {
  name: "fire6/relu_expand1x1"
  type: "ReLU"
  bottom: "fire6/expand1x1"
  top: "fire6/expand1x1"
}
layer {
  name: "fire6/expand3x3"
  type: "Convolution"
  bottom: "fire6/squeeze1x1"
  top: "fire6/expand3x3"
  convolution_param {
    num_output: 192
    pad: 1
    kernel_size: 3
    weight_filler {
      type: "xavier"
    }
  }
}
layer {
  name: "fire6/relu_expand3x3"
  type: "ReLU"
  bottom: "fire6/expand3x3"
  top: "fire6/expand3x3"
}
layer {
  name: "fire6/concat"
  type: "Concat"
  bottom: "fire6/expand1x1"
  bottom: "fire6/expand3x3"
  top: "fire6/concat"
}
layer {
  name: "fire7/squeeze1x1"
  type: "Convolution"
  bottom: "fire6/concat"
  top: "fire7/squeeze1x1"
  convolution_param {
    num_output: 48
    kernel_size: 1
    weight_filler {
      type: "xavier"
    }
  }
}
layer {
  name: "fire7/relu_squeeze1x1"
  type: "ReLU"
  bottom: "fire7/squeeze1x1"
  top: "fire7/squeeze1x1"
}
layer {
  name: "fire7/expand1x1"
  type: "Convolution"
  bottom: "fire7/squeeze1x1"
  top: "fire7/expand1x1"
  convolution_param {
    num_output: 192
    kernel_size: 1
    weight_filler {
      type: "xavier"
    }
  }
}
layer {
  name: "fire7/relu_expand1x1"
  type: "ReLU"
  bottom: "fire7/expand1x1"
  top: "fire7/expand1x1"
}
layer {
  name: "fire7/expand3x3"
  type: "Convolution"
  bottom: "fire7/squeeze1x1"
  top: "fire7/expand3x3"
  convolution_param {
    num_output: 192
    pad: 1
    kernel_size: 3
    weight_filler {
      type: "xavier"
    }
  }
}
layer {
  name: "fire7/relu_expand3x3"
  type: "ReLU"
  bottom: "fire7/expand3x3"
  top: "fire7/expand3x3"
}
layer {
  name: "fire7/concat"
  type: "Concat"
  bottom: "fire7/expand1x1"
  bottom: "fire7/expand3x3"
  top: "fire7/concat"
}
layer {
  name: "fire8/squeeze1x1"
  type: "Convolution"
  bottom: "fire7/concat"
  top: "fire8/squeeze1x1"
  convolution_param {
    num_output: 64
    kernel_size: 1
    weight_filler {
      type: "xavier"
    }
  }
}
layer {
  name: "fire8/relu_squeeze1x1"
  type: "ReLU"
  bottom: "fire8/squeeze1x1"
  top: "fire8/squeeze1x1"
}
layer {
  name: "fire8/expand1x1"
  type: "Convolution"
  bottom: "fire8/squeeze1x1"
  top: "fire8/expand1x1"
  convolution_param {
    num_output: 256
    kernel_size: 1
    weight_filler {
      type: "xavier"
    }
  }
}
layer {
  name: "fire8/relu_expand1x1"
  type: "ReLU"
  bottom: "fire8/expand1x1"
  top: "fire8/expand1x1"
}
layer {
  name: "fire8/expand3x3"
  type: "Convolution"
  bottom: "fire8/squeeze1x1"
  top: "fire8/expand3x3"
  convolution_param {
    num_output: 256
    pad: 1
    kernel_size: 3
    weight_filler {
      type: "xavier"
    }
  }
}
layer {
  name: "fire8/relu_expand3x3"
  type: "ReLU"
  bottom: "fire8/expand3x3"
  top: "fire8/expand3x3"
}
layer {
  name: "fire8/concat"
  type: "Concat"
  bottom: "fire8/expand1x1"
  bottom: "fire8/expand3x3"
  top: "fire8/concat"
}
layer {
  name: "fire9/squeeze1x1"
  type: "Convolution"
  bottom: "fire8/concat"
  top: "fire9/squeeze1x1"
  convolution_param {
    num_output: 64
    kernel_size: 1
    weight_filler {
      type: "xavier"
    }
  }
}
layer {
  name: "fire9/relu_squeeze1x1"
  type: "ReLU"
  bottom: "fire9/squeeze1x1"
  top: "fire9/squeeze1x1"
}
layer {
  name: "fire9/expand1x1"
  type: "Convolution"
  bottom: "fire9/squeeze1x1"
  top: "fire9/expand1x1"
  convolution_param {
    num_output: 256
    kernel_size: 1
    weight_filler {
      type: "xavier"
    }
  }
}
layer {
  name: "fire9/relu_expand1x1"
  type: "ReLU"
  bottom: "fire9/expand1x1"
  top: "fire9/expand1x1"
}
layer {
  name: "fire9/expand3x3"
  type: "Convolution"
  bottom: "fire9/squeeze1x1"
  top: "fire9/expand3x3"
  convolution_param {
    num_output: 256
    pad: 1
    kernel_size: 3
    weight_filler {
      type: "xavier"
    }
  }
}
layer {
  name: "fire9/relu_expand3x3"
  type: "ReLU"
  bottom: "fire9/expand3x3"
  top: "fire9/expand3x3"
}
layer {
  name: "fire9/concat"
  type: "Concat"
  bottom: "fire9/expand1x1"
  bottom: "fire9/expand3x3"
  top: "fire9/concat"
}
layer {
  name: "drop9"
  type: "Dropout"
  bottom: "fire9/concat"
  top: "fire9/concat"
  dropout_param {
    dropout_ratio: 0.5
  }
}
layer {
  name: "pool_"
  type: "Pooling"
  bottom: "fire9/concat"
  top: "pool_"
  pooling_param {
    pool: AVE
    global_pooling: true
  }
}
layer {
  name: "fc"
  type: "InnerProduct"
  bottom: "pool_"
  top: "pool10"
  param {
    lr_mult: 1
    decay_mult: 1
  }
  param {
    lr_mult: 2
    decay_mult: 0
  }
  inner_product_param {
    num_output: 10575
    weight_filler {
      type: "xavier"
    }
    bias_filler {
      type: "constant"
      value: 0
    }
  }
}
layer {
  name: "loss"
  type: "SoftmaxWithLoss"
  bottom: "pool10"
  bottom: "label"
  top: "loss"
}
layer {
  name: "center_loss"
  type: "CenterLoss"
  bottom: "pool_"
  bottom: "label"
  top: "center_loss"
  loss_weight: 0.008
  param {
    lr_mult: 1
    decay_mult: 2
  }
  center_loss_param {
    num_output: 10575
    center_filler {
      type: "xavier"
    }
  }
}
layer {
  name: "accuracy"
  type: "Accuracy"
  bottom: "pool10"
  bottom: "label"
  top: "accuracy"
}
layer {
  name: "accuracy_top5"
  type: "Accuracy"
  bottom: "pool10"
  bottom: "label"
  top: "accuracy_top5"
  accuracy_param {
    top_k: 5
  }
}
I0613 17:29:41.494201  1860 layer_factory.hpp:77] Creating layer data
I0613 17:29:41.494268  1860 net.cpp:100] Creating Layer data
I0613 17:29:41.494283  1860 net.cpp:408] data -> data
I0613 17:29:41.494308  1860 net.cpp:408] data -> label
I0613 17:29:41.494344  1860 image_data_layer.cpp:38] Opening file ./data/anno.txt
I0613 17:29:41.715181  1860 image_data_layer.cpp:53] Shuffling data
I0613 17:29:41.798112  1860 image_data_layer.cpp:58] A total of 452710 images.
I0613 17:29:56.817818  1860 image_data_layer.cpp:85] output data size: 128,3,266,228
I0613 17:29:56.979869  1860 net.cpp:150] Setting up data
I0613 17:29:56.979921  1860 net.cpp:157] Top shape: 128 3 266 228 (23288832)
I0613 17:29:56.979928  1860 net.cpp:157] Top shape: 128 (128)
I0613 17:29:56.979933  1860 net.cpp:165] Memory required for data: 93155840
I0613 17:29:56.979955  1860 layer_factory.hpp:77] Creating layer label_data_1_split
I0613 17:29:56.979993  1860 net.cpp:100] Creating Layer label_data_1_split
I0613 17:29:56.980000  1860 net.cpp:434] label_data_1_split <- label
I0613 17:29:56.980010  1860 net.cpp:408] label_data_1_split -> label_data_1_split_0
I0613 17:29:56.980023  1860 net.cpp:408] label_data_1_split -> label_data_1_split_1
I0613 17:29:56.980031  1860 net.cpp:408] label_data_1_split -> label_data_1_split_2
I0613 17:29:56.980038  1860 net.cpp:408] label_data_1_split -> label_data_1_split_3
I0613 17:29:56.980267  1860 net.cpp:150] Setting up label_data_1_split
I0613 17:29:56.980278  1860 net.cpp:157] Top shape: 128 (128)
I0613 17:29:56.980285  1860 net.cpp:157] Top shape: 128 (128)
I0613 17:29:56.980290  1860 net.cpp:157] Top shape: 128 (128)
I0613 17:29:56.980295  1860 net.cpp:157] Top shape: 128 (128)
I0613 17:29:56.980300  1860 net.cpp:165] Memory required for data: 93157888
I0613 17:29:56.980305  1860 layer_factory.hpp:77] Creating layer conv1
I0613 17:29:56.980324  1860 net.cpp:100] Creating Layer conv1
I0613 17:29:56.980329  1860 net.cpp:434] conv1 <- data
I0613 17:29:56.980337  1860 net.cpp:408] conv1 -> conv1
I0613 17:29:56.984398  1860 net.cpp:150] Setting up conv1
I0613 17:29:56.984413  1860 net.cpp:157] Top shape: 128 64 132 113 (122191872)
I0613 17:29:56.984418  1860 net.cpp:165] Memory required for data: 581925376
I0613 17:29:56.984431  1860 layer_factory.hpp:77] Creating layer relu_conv1
I0613 17:29:56.984442  1860 net.cpp:100] Creating Layer relu_conv1
I0613 17:29:56.984448  1860 net.cpp:434] relu_conv1 <- conv1
I0613 17:29:56.984455  1860 net.cpp:395] relu_conv1 -> conv1 (in-place)
I0613 17:29:56.984469  1860 net.cpp:150] Setting up relu_conv1
I0613 17:29:56.984475  1860 net.cpp:157] Top shape: 128 64 132 113 (122191872)
I0613 17:29:56.984480  1860 net.cpp:165] Memory required for data: 1070692864
I0613 17:29:56.984485  1860 layer_factory.hpp:77] Creating layer pool1
I0613 17:29:56.984495  1860 net.cpp:100] Creating Layer pool1
I0613 17:29:56.984500  1860 net.cpp:434] pool1 <- conv1
I0613 17:29:56.984506  1860 net.cpp:408] pool1 -> pool1
I0613 17:29:56.985548  1860 net.cpp:150] Setting up pool1
I0613 17:29:56.985565  1860 net.cpp:157] Top shape: 128 64 66 56 (30277632)
I0613 17:29:56.985570  1860 net.cpp:165] Memory required for data: 1191803392
I0613 17:29:56.985576  1860 layer_factory.hpp:77] Creating layer fire2/squeeze1x1
I0613 17:29:56.985589  1860 net.cpp:100] Creating Layer fire2/squeeze1x1
I0613 17:29:56.985594  1860 net.cpp:434] fire2/squeeze1x1 <- pool1
I0613 17:29:56.985606  1860 net.cpp:408] fire2/squeeze1x1 -> fire2/squeeze1x1
I0613 17:29:56.996147  1860 net.cpp:150] Setting up fire2/squeeze1x1
I0613 17:29:56.996198  1860 net.cpp:157] Top shape: 128 16 66 56 (7569408)
I0613 17:29:56.996212  1860 net.cpp:165] Memory required for data: 1222081024
I0613 17:29:56.996230  1860 layer_factory.hpp:77] Creating layer fire2/relu_squeeze1x1
I0613 17:29:56.996249  1860 net.cpp:100] Creating Layer fire2/relu_squeeze1x1
I0613 17:29:56.996259  1860 net.cpp:434] fire2/relu_squeeze1x1 <- fire2/squeeze1x1
I0613 17:29:56.996273  1860 net.cpp:395] fire2/relu_squeeze1x1 -> fire2/squeeze1x1 (in-place)
I0613 17:29:56.996289  1860 net.cpp:150] Setting up fire2/relu_squeeze1x1
I0613 17:29:56.996299  1860 net.cpp:157] Top shape: 128 16 66 56 (7569408)
I0613 17:29:56.996309  1860 net.cpp:165] Memory required for data: 1252358656
I0613 17:29:56.996317  1860 layer_factory.hpp:77] Creating layer fire2/squeeze1x1_fire2/relu_squeeze1x1_0_split
I0613 17:29:56.996328  1860 net.cpp:100] Creating Layer fire2/squeeze1x1_fire2/relu_squeeze1x1_0_split
I0613 17:29:56.996337  1860 net.cpp:434] fire2/squeeze1x1_fire2/relu_squeeze1x1_0_split <- fire2/squeeze1x1
I0613 17:29:56.996350  1860 net.cpp:408] fire2/squeeze1x1_fire2/relu_squeeze1x1_0_split -> fire2/squeeze1x1_fire2/relu_squeeze1x1_0_split_0
I0613 17:29:56.996363  1860 net.cpp:408] fire2/squeeze1x1_fire2/relu_squeeze1x1_0_split -> fire2/squeeze1x1_fire2/relu_squeeze1x1_0_split_1
I0613 17:29:56.996460  1860 net.cpp:150] Setting up fire2/squeeze1x1_fire2/relu_squeeze1x1_0_split
I0613 17:29:56.996474  1860 net.cpp:157] Top shape: 128 16 66 56 (7569408)
I0613 17:29:56.996484  1860 net.cpp:157] Top shape: 128 16 66 56 (7569408)
I0613 17:29:56.996495  1860 net.cpp:165] Memory required for data: 1312913920
I0613 17:29:56.996502  1860 layer_factory.hpp:77] Creating layer fire2/expand1x1
I0613 17:29:56.996523  1860 net.cpp:100] Creating Layer fire2/expand1x1
I0613 17:29:56.996533  1860 net.cpp:434] fire2/expand1x1 <- fire2/squeeze1x1_fire2/relu_squeeze1x1_0_split_0
I0613 17:29:56.996546  1860 net.cpp:408] fire2/expand1x1 -> fire2/expand1x1
I0613 17:29:56.997133  1860 net.cpp:150] Setting up fire2/expand1x1
I0613 17:29:56.997151  1860 net.cpp:157] Top shape: 128 64 66 56 (30277632)
I0613 17:29:56.997159  1860 net.cpp:165] Memory required for data: 1434024448
I0613 17:29:56.997174  1860 layer_factory.hpp:77] Creating layer fire2/relu_expand1x1
I0613 17:29:56.997187  1860 net.cpp:100] Creating Layer fire2/relu_expand1x1
I0613 17:29:56.997197  1860 net.cpp:434] fire2/relu_expand1x1 <- fire2/expand1x1
I0613 17:29:56.997211  1860 net.cpp:395] fire2/relu_expand1x1 -> fire2/expand1x1 (in-place)
I0613 17:29:56.997225  1860 net.cpp:150] Setting up fire2/relu_expand1x1
I0613 17:29:56.997236  1860 net.cpp:157] Top shape: 128 64 66 56 (30277632)
I0613 17:29:56.997256  1860 net.cpp:165] Memory required for data: 1555134976
I0613 17:29:56.997264  1860 layer_factory.hpp:77] Creating layer fire2/expand3x3
I0613 17:29:56.997284  1860 net.cpp:100] Creating Layer fire2/expand3x3
I0613 17:29:56.997293  1860 net.cpp:434] fire2/expand3x3 <- fire2/squeeze1x1_fire2/relu_squeeze1x1_0_split_1
I0613 17:29:56.997308  1860 net.cpp:408] fire2/expand3x3 -> fire2/expand3x3
I0613 17:29:56.998244  1860 net.cpp:150] Setting up fire2/expand3x3
I0613 17:29:56.998263  1860 net.cpp:157] Top shape: 128 64 66 56 (30277632)
I0613 17:29:56.998272  1860 net.cpp:165] Memory required for data: 1676245504
I0613 17:29:56.998287  1860 layer_factory.hpp:77] Creating layer fire2/relu_expand3x3
I0613 17:29:56.998301  1860 net.cpp:100] Creating Layer fire2/relu_expand3x3
I0613 17:29:56.998311  1860 net.cpp:434] fire2/relu_expand3x3 <- fire2/expand3x3
I0613 17:29:56.998324  1860 net.cpp:395] fire2/relu_expand3x3 -> fire2/expand3x3 (in-place)
I0613 17:29:56.998337  1860 net.cpp:150] Setting up fire2/relu_expand3x3
I0613 17:29:56.998348  1860 net.cpp:157] Top shape: 128 64 66 56 (30277632)
I0613 17:29:56.998356  1860 net.cpp:165] Memory required for data: 1797356032
I0613 17:29:56.998364  1860 layer_factory.hpp:77] Creating layer fire2/concat
I0613 17:29:56.998376  1860 net.cpp:100] Creating Layer fire2/concat
I0613 17:29:56.998385  1860 net.cpp:434] fire2/concat <- fire2/expand1x1
I0613 17:29:56.998395  1860 net.cpp:434] fire2/concat <- fire2/expand3x3
I0613 17:29:56.998407  1860 net.cpp:408] fire2/concat -> fire2/concat
I0613 17:29:56.998467  1860 net.cpp:150] Setting up fire2/concat
I0613 17:29:56.998481  1860 net.cpp:157] Top shape: 128 128 66 56 (60555264)
I0613 17:29:56.998489  1860 net.cpp:165] Memory required for data: 2039577088
I0613 17:29:56.998497  1860 layer_factory.hpp:77] Creating layer fire3/squeeze1x1
I0613 17:29:56.998514  1860 net.cpp:100] Creating Layer fire3/squeeze1x1
I0613 17:29:56.998524  1860 net.cpp:434] fire3/squeeze1x1 <- fire2/concat
I0613 17:29:56.998538  1860 net.cpp:408] fire3/squeeze1x1 -> fire3/squeeze1x1
I0613 17:29:56.999133  1860 net.cpp:150] Setting up fire3/squeeze1x1
I0613 17:29:56.999150  1860 net.cpp:157] Top shape: 128 16 66 56 (7569408)
I0613 17:29:56.999160  1860 net.cpp:165] Memory required for data: 2069854720
I0613 17:29:56.999177  1860 layer_factory.hpp:77] Creating layer fire3/relu_squeeze1x1
I0613 17:29:56.999191  1860 net.cpp:100] Creating Layer fire3/relu_squeeze1x1
I0613 17:29:56.999199  1860 net.cpp:434] fire3/relu_squeeze1x1 <- fire3/squeeze1x1
I0613 17:29:56.999212  1860 net.cpp:395] fire3/relu_squeeze1x1 -> fire3/squeeze1x1 (in-place)
I0613 17:29:56.999224  1860 net.cpp:150] Setting up fire3/relu_squeeze1x1
I0613 17:29:56.999235  1860 net.cpp:157] Top shape: 128 16 66 56 (7569408)
I0613 17:29:56.999243  1860 net.cpp:165] Memory required for data: 2100132352
I0613 17:29:56.999251  1860 layer_factory.hpp:77] Creating layer fire3/squeeze1x1_fire3/relu_squeeze1x1_0_split
I0613 17:29:56.999266  1860 net.cpp:100] Creating Layer fire3/squeeze1x1_fire3/relu_squeeze1x1_0_split
I0613 17:29:56.999276  1860 net.cpp:434] fire3/squeeze1x1_fire3/relu_squeeze1x1_0_split <- fire3/squeeze1x1
I0613 17:29:56.999289  1860 net.cpp:408] fire3/squeeze1x1_fire3/relu_squeeze1x1_0_split -> fire3/squeeze1x1_fire3/relu_squeeze1x1_0_split_0
I0613 17:29:56.999302  1860 net.cpp:408] fire3/squeeze1x1_fire3/relu_squeeze1x1_0_split -> fire3/squeeze1x1_fire3/relu_squeeze1x1_0_split_1
I0613 17:29:56.999392  1860 net.cpp:150] Setting up fire3/squeeze1x1_fire3/relu_squeeze1x1_0_split
I0613 17:29:56.999405  1860 net.cpp:157] Top shape: 128 16 66 56 (7569408)
I0613 17:29:56.999418  1860 net.cpp:157] Top shape: 128 16 66 56 (7569408)
I0613 17:29:56.999425  1860 net.cpp:165] Memory required for data: 2160687616
I0613 17:29:56.999434  1860 layer_factory.hpp:77] Creating layer fire3/expand1x1
I0613 17:29:56.999451  1860 net.cpp:100] Creating Layer fire3/expand1x1
I0613 17:29:56.999461  1860 net.cpp:434] fire3/expand1x1 <- fire3/squeeze1x1_fire3/relu_squeeze1x1_0_split_0
I0613 17:29:56.999474  1860 net.cpp:408] fire3/expand1x1 -> fire3/expand1x1
I0613 17:29:57.000058  1860 net.cpp:150] Setting up fire3/expand1x1
I0613 17:29:57.000074  1860 net.cpp:157] Top shape: 128 64 66 56 (30277632)
I0613 17:29:57.000083  1860 net.cpp:165] Memory required for data: 2281798144
I0613 17:29:57.000097  1860 layer_factory.hpp:77] Creating layer fire3/relu_expand1x1
I0613 17:29:57.000109  1860 net.cpp:100] Creating Layer fire3/relu_expand1x1
I0613 17:29:57.000119  1860 net.cpp:434] fire3/relu_expand1x1 <- fire3/expand1x1
I0613 17:29:57.000131  1860 net.cpp:395] fire3/relu_expand1x1 -> fire3/expand1x1 (in-place)
I0613 17:29:57.000145  1860 net.cpp:150] Setting up fire3/relu_expand1x1
I0613 17:29:57.000155  1860 net.cpp:157] Top shape: 128 64 66 56 (30277632)
I0613 17:29:57.000164  1860 net.cpp:165] Memory required for data: 2402908672
I0613 17:29:57.000172  1860 layer_factory.hpp:77] Creating layer fire3/expand3x3
I0613 17:29:57.000207  1860 net.cpp:100] Creating Layer fire3/expand3x3
I0613 17:29:57.000216  1860 net.cpp:434] fire3/expand3x3 <- fire3/squeeze1x1_fire3/relu_squeeze1x1_0_split_1
I0613 17:29:57.000229  1860 net.cpp:408] fire3/expand3x3 -> fire3/expand3x3
I0613 17:29:57.000910  1860 net.cpp:150] Setting up fire3/expand3x3
I0613 17:29:57.000928  1860 net.cpp:157] Top shape: 128 64 66 56 (30277632)
I0613 17:29:57.000936  1860 net.cpp:165] Memory required for data: 2524019200
I0613 17:29:57.000950  1860 layer_factory.hpp:77] Creating layer fire3/relu_expand3x3
I0613 17:29:57.000962  1860 net.cpp:100] Creating Layer fire3/relu_expand3x3
I0613 17:29:57.000972  1860 net.cpp:434] fire3/relu_expand3x3 <- fire3/expand3x3
I0613 17:29:57.000984  1860 net.cpp:395] fire3/relu_expand3x3 -> fire3/expand3x3 (in-place)
I0613 17:29:57.000998  1860 net.cpp:150] Setting up fire3/relu_expand3x3
I0613 17:29:57.001008  1860 net.cpp:157] Top shape: 128 64 66 56 (30277632)
I0613 17:29:57.001015  1860 net.cpp:165] Memory required for data: 2645129728
I0613 17:29:57.001027  1860 layer_factory.hpp:77] Creating layer fire3/concat
I0613 17:29:57.001039  1860 net.cpp:100] Creating Layer fire3/concat
I0613 17:29:57.001049  1860 net.cpp:434] fire3/concat <- fire3/expand1x1
I0613 17:29:57.001057  1860 net.cpp:434] fire3/concat <- fire3/expand3x3
I0613 17:29:57.001070  1860 net.cpp:408] fire3/concat -> fire3/concat
I0613 17:29:57.001127  1860 net.cpp:150] Setting up fire3/concat
I0613 17:29:57.001140  1860 net.cpp:157] Top shape: 128 128 66 56 (60555264)
I0613 17:29:57.001149  1860 net.cpp:165] Memory required for data: 2887350784
I0613 17:29:57.001157  1860 layer_factory.hpp:77] Creating layer pool3
I0613 17:29:57.001171  1860 net.cpp:100] Creating Layer pool3
I0613 17:29:57.001180  1860 net.cpp:434] pool3 <- fire3/concat
I0613 17:29:57.001193  1860 net.cpp:408] pool3 -> pool3
I0613 17:29:57.001276  1860 net.cpp:150] Setting up pool3
I0613 17:29:57.001289  1860 net.cpp:157] Top shape: 128 128 33 28 (15138816)
I0613 17:29:57.001298  1860 net.cpp:165] Memory required for data: 2947906048
I0613 17:29:57.001307  1860 layer_factory.hpp:77] Creating layer fire4/squeeze1x1
I0613 17:29:57.001323  1860 net.cpp:100] Creating Layer fire4/squeeze1x1
I0613 17:29:57.001333  1860 net.cpp:434] fire4/squeeze1x1 <- pool3
I0613 17:29:57.001345  1860 net.cpp:408] fire4/squeeze1x1 -> fire4/squeeze1x1
I0613 17:29:57.001971  1860 net.cpp:150] Setting up fire4/squeeze1x1
I0613 17:29:57.001987  1860 net.cpp:157] Top shape: 128 32 33 28 (3784704)
I0613 17:29:57.001996  1860 net.cpp:165] Memory required for data: 2963044864
I0613 17:29:57.002009  1860 layer_factory.hpp:77] Creating layer fire4/relu_squeeze1x1
I0613 17:29:57.002022  1860 net.cpp:100] Creating Layer fire4/relu_squeeze1x1
I0613 17:29:57.002030  1860 net.cpp:434] fire4/relu_squeeze1x1 <- fire4/squeeze1x1
I0613 17:29:57.002043  1860 net.cpp:395] fire4/relu_squeeze1x1 -> fire4/squeeze1x1 (in-place)
I0613 17:29:57.002055  1860 net.cpp:150] Setting up fire4/relu_squeeze1x1
I0613 17:29:57.002066  1860 net.cpp:157] Top shape: 128 32 33 28 (3784704)
I0613 17:29:57.002074  1860 net.cpp:165] Memory required for data: 2978183680
I0613 17:29:57.002084  1860 layer_factory.hpp:77] Creating layer fire4/squeeze1x1_fire4/relu_squeeze1x1_0_split
I0613 17:29:57.002097  1860 net.cpp:100] Creating Layer fire4/squeeze1x1_fire4/relu_squeeze1x1_0_split
I0613 17:29:57.002106  1860 net.cpp:434] fire4/squeeze1x1_fire4/relu_squeeze1x1_0_split <- fire4/squeeze1x1
I0613 17:29:57.002118  1860 net.cpp:408] fire4/squeeze1x1_fire4/relu_squeeze1x1_0_split -> fire4/squeeze1x1_fire4/relu_squeeze1x1_0_split_0
I0613 17:29:57.002131  1860 net.cpp:408] fire4/squeeze1x1_fire4/relu_squeeze1x1_0_split -> fire4/squeeze1x1_fire4/relu_squeeze1x1_0_split_1
I0613 17:29:57.002215  1860 net.cpp:150] Setting up fire4/squeeze1x1_fire4/relu_squeeze1x1_0_split
I0613 17:29:57.002230  1860 net.cpp:157] Top shape: 128 32 33 28 (3784704)
I0613 17:29:57.002240  1860 net.cpp:157] Top shape: 128 32 33 28 (3784704)
I0613 17:29:57.002249  1860 net.cpp:165] Memory required for data: 3008461312
I0613 17:29:57.002257  1860 layer_factory.hpp:77] Creating layer fire4/expand1x1
I0613 17:29:57.002274  1860 net.cpp:100] Creating Layer fire4/expand1x1
I0613 17:29:57.002282  1860 net.cpp:434] fire4/expand1x1 <- fire4/squeeze1x1_fire4/relu_squeeze1x1_0_split_0
I0613 17:29:57.002295  1860 net.cpp:408] fire4/expand1x1 -> fire4/expand1x1
I0613 17:29:57.002893  1860 net.cpp:150] Setting up fire4/expand1x1
I0613 17:29:57.002909  1860 net.cpp:157] Top shape: 128 128 33 28 (15138816)
I0613 17:29:57.002918  1860 net.cpp:165] Memory required for data: 3069016576
I0613 17:29:57.002938  1860 layer_factory.hpp:77] Creating layer fire4/relu_expand1x1
I0613 17:29:57.002949  1860 net.cpp:100] Creating Layer fire4/relu_expand1x1
I0613 17:29:57.002960  1860 net.cpp:434] fire4/relu_expand1x1 <- fire4/expand1x1
I0613 17:29:57.002972  1860 net.cpp:395] fire4/relu_expand1x1 -> fire4/expand1x1 (in-place)
I0613 17:29:57.002985  1860 net.cpp:150] Setting up fire4/relu_expand1x1
I0613 17:29:57.002996  1860 net.cpp:157] Top shape: 128 128 33 28 (15138816)
I0613 17:29:57.003005  1860 net.cpp:165] Memory required for data: 3129571840
I0613 17:29:57.003012  1860 layer_factory.hpp:77] Creating layer fire4/expand3x3
I0613 17:29:57.003029  1860 net.cpp:100] Creating Layer fire4/expand3x3
I0613 17:29:57.003039  1860 net.cpp:434] fire4/expand3x3 <- fire4/squeeze1x1_fire4/relu_squeeze1x1_0_split_1
I0613 17:29:57.003052  1860 net.cpp:408] fire4/expand3x3 -> fire4/expand3x3
I0613 17:29:57.006474  1860 net.cpp:150] Setting up fire4/expand3x3
I0613 17:29:57.006501  1860 net.cpp:157] Top shape: 128 128 33 28 (15138816)
I0613 17:29:57.006511  1860 net.cpp:165] Memory required for data: 3190127104
I0613 17:29:57.006536  1860 layer_factory.hpp:77] Creating layer fire4/relu_expand3x3
I0613 17:29:57.006554  1860 net.cpp:100] Creating Layer fire4/relu_expand3x3
I0613 17:29:57.006564  1860 net.cpp:434] fire4/relu_expand3x3 <- fire4/expand3x3
I0613 17:29:57.006577  1860 net.cpp:395] fire4/relu_expand3x3 -> fire4/expand3x3 (in-place)
I0613 17:29:57.006592  1860 net.cpp:150] Setting up fire4/relu_expand3x3
I0613 17:29:57.006603  1860 net.cpp:157] Top shape: 128 128 33 28 (15138816)
I0613 17:29:57.006613  1860 net.cpp:165] Memory required for data: 3250682368
I0613 17:29:57.006621  1860 layer_factory.hpp:77] Creating layer fire4/concat
I0613 17:29:57.006633  1860 net.cpp:100] Creating Layer fire4/concat
I0613 17:29:57.006642  1860 net.cpp:434] fire4/concat <- fire4/expand1x1
I0613 17:29:57.006652  1860 net.cpp:434] fire4/concat <- fire4/expand3x3
I0613 17:29:57.006664  1860 net.cpp:408] fire4/concat -> fire4/concat
I0613 17:29:57.006723  1860 net.cpp:150] Setting up fire4/concat
I0613 17:29:57.006737  1860 net.cpp:157] Top shape: 128 256 33 28 (30277632)
I0613 17:29:57.006745  1860 net.cpp:165] Memory required for data: 3371792896
I0613 17:29:57.006754  1860 layer_factory.hpp:77] Creating layer fire5/squeeze1x1
I0613 17:29:57.006770  1860 net.cpp:100] Creating Layer fire5/squeeze1x1
I0613 17:29:57.006780  1860 net.cpp:434] fire5/squeeze1x1 <- fire4/concat
I0613 17:29:57.006793  1860 net.cpp:408] fire5/squeeze1x1 -> fire5/squeeze1x1
I0613 17:29:57.007480  1860 net.cpp:150] Setting up fire5/squeeze1x1
I0613 17:29:57.007498  1860 net.cpp:157] Top shape: 128 32 33 28 (3784704)
I0613 17:29:57.007506  1860 net.cpp:165] Memory required for data: 3386931712
I0613 17:29:57.007520  1860 layer_factory.hpp:77] Creating layer fire5/relu_squeeze1x1
I0613 17:29:57.007534  1860 net.cpp:100] Creating Layer fire5/relu_squeeze1x1
I0613 17:29:57.007544  1860 net.cpp:434] fire5/relu_squeeze1x1 <- fire5/squeeze1x1
I0613 17:29:57.007555  1860 net.cpp:395] fire5/relu_squeeze1x1 -> fire5/squeeze1x1 (in-place)
I0613 17:29:57.007568  1860 net.cpp:150] Setting up fire5/relu_squeeze1x1
I0613 17:29:57.007580  1860 net.cpp:157] Top shape: 128 32 33 28 (3784704)
I0613 17:29:57.007587  1860 net.cpp:165] Memory required for data: 3402070528
I0613 17:29:57.007598  1860 layer_factory.hpp:77] Creating layer fire5/squeeze1x1_fire5/relu_squeeze1x1_0_split
I0613 17:29:57.007614  1860 net.cpp:100] Creating Layer fire5/squeeze1x1_fire5/relu_squeeze1x1_0_split
I0613 17:29:57.007625  1860 net.cpp:434] fire5/squeeze1x1_fire5/relu_squeeze1x1_0_split <- fire5/squeeze1x1
I0613 17:29:57.007637  1860 net.cpp:408] fire5/squeeze1x1_fire5/relu_squeeze1x1_0_split -> fire5/squeeze1x1_fire5/relu_squeeze1x1_0_split_0
I0613 17:29:57.007652  1860 net.cpp:408] fire5/squeeze1x1_fire5/relu_squeeze1x1_0_split -> fire5/squeeze1x1_fire5/relu_squeeze1x1_0_split_1
I0613 17:29:57.007742  1860 net.cpp:150] Setting up fire5/squeeze1x1_fire5/relu_squeeze1x1_0_split
I0613 17:29:57.007756  1860 net.cpp:157] Top shape: 128 32 33 28 (3784704)
I0613 17:29:57.007766  1860 net.cpp:157] Top shape: 128 32 33 28 (3784704)
I0613 17:29:57.007776  1860 net.cpp:165] Memory required for data: 3432348160
I0613 17:29:57.007784  1860 layer_factory.hpp:77] Creating layer fire5/expand1x1
I0613 17:29:57.007802  1860 net.cpp:100] Creating Layer fire5/expand1x1
I0613 17:29:57.007810  1860 net.cpp:434] fire5/expand1x1 <- fire5/squeeze1x1_fire5/relu_squeeze1x1_0_split_0
I0613 17:29:57.007824  1860 net.cpp:408] fire5/expand1x1 -> fire5/expand1x1
I0613 17:29:57.008455  1860 net.cpp:150] Setting up fire5/expand1x1
I0613 17:29:57.008484  1860 net.cpp:157] Top shape: 128 128 33 28 (15138816)
I0613 17:29:57.008491  1860 net.cpp:165] Memory required for data: 3492903424
I0613 17:29:57.008504  1860 layer_factory.hpp:77] Creating layer fire5/relu_expand1x1
I0613 17:29:57.008518  1860 net.cpp:100] Creating Layer fire5/relu_expand1x1
I0613 17:29:57.008527  1860 net.cpp:434] fire5/relu_expand1x1 <- fire5/expand1x1
I0613 17:29:57.008538  1860 net.cpp:395] fire5/relu_expand1x1 -> fire5/expand1x1 (in-place)
I0613 17:29:57.008551  1860 net.cpp:150] Setting up fire5/relu_expand1x1
I0613 17:29:57.008561  1860 net.cpp:157] Top shape: 128 128 33 28 (15138816)
I0613 17:29:57.008569  1860 net.cpp:165] Memory required for data: 3553458688
I0613 17:29:57.008577  1860 layer_factory.hpp:77] Creating layer fire5/expand3x3
I0613 17:29:57.008592  1860 net.cpp:100] Creating Layer fire5/expand3x3
I0613 17:29:57.008601  1860 net.cpp:434] fire5/expand3x3 <- fire5/squeeze1x1_fire5/relu_squeeze1x1_0_split_1
I0613 17:29:57.008615  1860 net.cpp:408] fire5/expand3x3 -> fire5/expand3x3
I0613 17:29:57.009524  1860 net.cpp:150] Setting up fire5/expand3x3
I0613 17:29:57.009541  1860 net.cpp:157] Top shape: 128 128 33 28 (15138816)
I0613 17:29:57.009547  1860 net.cpp:165] Memory required for data: 3614013952
I0613 17:29:57.009562  1860 layer_factory.hpp:77] Creating layer fire5/relu_expand3x3
I0613 17:29:57.009572  1860 net.cpp:100] Creating Layer fire5/relu_expand3x3
I0613 17:29:57.009582  1860 net.cpp:434] fire5/relu_expand3x3 <- fire5/expand3x3
I0613 17:29:57.009593  1860 net.cpp:395] fire5/relu_expand3x3 -> fire5/expand3x3 (in-place)
I0613 17:29:57.009604  1860 net.cpp:150] Setting up fire5/relu_expand3x3
I0613 17:29:57.009614  1860 net.cpp:157] Top shape: 128 128 33 28 (15138816)
I0613 17:29:57.009623  1860 net.cpp:165] Memory required for data: 3674569216
I0613 17:29:57.009629  1860 layer_factory.hpp:77] Creating layer fire5/concat
I0613 17:29:57.009640  1860 net.cpp:100] Creating Layer fire5/concat
I0613 17:29:57.009649  1860 net.cpp:434] fire5/concat <- fire5/expand1x1
I0613 17:29:57.009657  1860 net.cpp:434] fire5/concat <- fire5/expand3x3
I0613 17:29:57.009668  1860 net.cpp:408] fire5/concat -> fire5/concat
I0613 17:29:57.009724  1860 net.cpp:150] Setting up fire5/concat
I0613 17:29:57.009738  1860 net.cpp:157] Top shape: 128 256 33 28 (30277632)
I0613 17:29:57.009747  1860 net.cpp:165] Memory required for data: 3795679744
I0613 17:29:57.009754  1860 layer_factory.hpp:77] Creating layer pool5
I0613 17:29:57.009766  1860 net.cpp:100] Creating Layer pool5
I0613 17:29:57.009774  1860 net.cpp:434] pool5 <- fire5/concat
I0613 17:29:57.009786  1860 net.cpp:408] pool5 -> pool5
I0613 17:29:57.009866  1860 net.cpp:150] Setting up pool5
I0613 17:29:57.009879  1860 net.cpp:157] Top shape: 128 256 16 14 (7340032)
I0613 17:29:57.009886  1860 net.cpp:165] Memory required for data: 3825039872
I0613 17:29:57.009894  1860 layer_factory.hpp:77] Creating layer fire6/squeeze1x1
I0613 17:29:57.009909  1860 net.cpp:100] Creating Layer fire6/squeeze1x1
I0613 17:29:57.009918  1860 net.cpp:434] fire6/squeeze1x1 <- pool5
I0613 17:29:57.009930  1860 net.cpp:408] fire6/squeeze1x1 -> fire6/squeeze1x1
I0613 17:29:57.010730  1860 net.cpp:150] Setting up fire6/squeeze1x1
I0613 17:29:57.010749  1860 net.cpp:157] Top shape: 128 48 16 14 (1376256)
I0613 17:29:57.010757  1860 net.cpp:165] Memory required for data: 3830544896
I0613 17:29:57.010771  1860 layer_factory.hpp:77] Creating layer fire6/relu_squeeze1x1
I0613 17:29:57.010784  1860 net.cpp:100] Creating Layer fire6/relu_squeeze1x1
I0613 17:29:57.010793  1860 net.cpp:434] fire6/relu_squeeze1x1 <- fire6/squeeze1x1
I0613 17:29:57.010804  1860 net.cpp:395] fire6/relu_squeeze1x1 -> fire6/squeeze1x1 (in-place)
I0613 17:29:57.010817  1860 net.cpp:150] Setting up fire6/relu_squeeze1x1
I0613 17:29:57.010826  1860 net.cpp:157] Top shape: 128 48 16 14 (1376256)
I0613 17:29:57.010834  1860 net.cpp:165] Memory required for data: 3836049920
I0613 17:29:57.010843  1860 layer_factory.hpp:77] Creating layer fire6/squeeze1x1_fire6/relu_squeeze1x1_0_split
I0613 17:29:57.010854  1860 net.cpp:100] Creating Layer fire6/squeeze1x1_fire6/relu_squeeze1x1_0_split
I0613 17:29:57.010861  1860 net.cpp:434] fire6/squeeze1x1_fire6/relu_squeeze1x1_0_split <- fire6/squeeze1x1
I0613 17:29:57.010872  1860 net.cpp:408] fire6/squeeze1x1_fire6/relu_squeeze1x1_0_split -> fire6/squeeze1x1_fire6/relu_squeeze1x1_0_split_0
I0613 17:29:57.010886  1860 net.cpp:408] fire6/squeeze1x1_fire6/relu_squeeze1x1_0_split -> fire6/squeeze1x1_fire6/relu_squeeze1x1_0_split_1
I0613 17:29:57.010968  1860 net.cpp:150] Setting up fire6/squeeze1x1_fire6/relu_squeeze1x1_0_split
I0613 17:29:57.010980  1860 net.cpp:157] Top shape: 128 48 16 14 (1376256)
I0613 17:29:57.010990  1860 net.cpp:157] Top shape: 128 48 16 14 (1376256)
I0613 17:29:57.010998  1860 net.cpp:165] Memory required for data: 3847059968
I0613 17:29:57.011006  1860 layer_factory.hpp:77] Creating layer fire6/expand1x1
I0613 17:29:57.011021  1860 net.cpp:100] Creating Layer fire6/expand1x1
I0613 17:29:57.011030  1860 net.cpp:434] fire6/expand1x1 <- fire6/squeeze1x1_fire6/relu_squeeze1x1_0_split_0
I0613 17:29:57.011044  1860 net.cpp:408] fire6/expand1x1 -> fire6/expand1x1
I0613 17:29:57.011693  1860 net.cpp:150] Setting up fire6/expand1x1
I0613 17:29:57.011709  1860 net.cpp:157] Top shape: 128 192 16 14 (5505024)
I0613 17:29:57.011718  1860 net.cpp:165] Memory required for data: 3869080064
I0613 17:29:57.011730  1860 layer_factory.hpp:77] Creating layer fire6/relu_expand1x1
I0613 17:29:57.011741  1860 net.cpp:100] Creating Layer fire6/relu_expand1x1
I0613 17:29:57.011751  1860 net.cpp:434] fire6/relu_expand1x1 <- fire6/expand1x1
I0613 17:29:57.011762  1860 net.cpp:395] fire6/relu_expand1x1 -> fire6/expand1x1 (in-place)
I0613 17:29:57.011775  1860 net.cpp:150] Setting up fire6/relu_expand1x1
I0613 17:29:57.011785  1860 net.cpp:157] Top shape: 128 192 16 14 (5505024)
I0613 17:29:57.011793  1860 net.cpp:165] Memory required for data: 3891100160
I0613 17:29:57.011801  1860 layer_factory.hpp:77] Creating layer fire6/expand3x3
I0613 17:29:57.011818  1860 net.cpp:100] Creating Layer fire6/expand3x3
I0613 17:29:57.011827  1860 net.cpp:434] fire6/expand3x3 <- fire6/squeeze1x1_fire6/relu_squeeze1x1_0_split_1
I0613 17:29:57.011839  1860 net.cpp:408] fire6/expand3x3 -> fire6/expand3x3
I0613 17:29:57.015595  1860 net.cpp:150] Setting up fire6/expand3x3
I0613 17:29:57.015620  1860 net.cpp:157] Top shape: 128 192 16 14 (5505024)
I0613 17:29:57.015630  1860 net.cpp:165] Memory required for data: 3913120256
I0613 17:29:57.015643  1860 layer_factory.hpp:77] Creating layer fire6/relu_expand3x3
I0613 17:29:57.015656  1860 net.cpp:100] Creating Layer fire6/relu_expand3x3
I0613 17:29:57.015666  1860 net.cpp:434] fire6/relu_expand3x3 <- fire6/expand3x3
I0613 17:29:57.015677  1860 net.cpp:395] fire6/relu_expand3x3 -> fire6/expand3x3 (in-place)
I0613 17:29:57.015691  1860 net.cpp:150] Setting up fire6/relu_expand3x3
I0613 17:29:57.015702  1860 net.cpp:157] Top shape: 128 192 16 14 (5505024)
I0613 17:29:57.015708  1860 net.cpp:165] Memory required for data: 3935140352
I0613 17:29:57.015717  1860 layer_factory.hpp:77] Creating layer fire6/concat
I0613 17:29:57.015727  1860 net.cpp:100] Creating Layer fire6/concat
I0613 17:29:57.015735  1860 net.cpp:434] fire6/concat <- fire6/expand1x1
I0613 17:29:57.015744  1860 net.cpp:434] fire6/concat <- fire6/expand3x3
I0613 17:29:57.015755  1860 net.cpp:408] fire6/concat -> fire6/concat
I0613 17:29:57.015815  1860 net.cpp:150] Setting up fire6/concat
I0613 17:29:57.015828  1860 net.cpp:157] Top shape: 128 384 16 14 (11010048)
I0613 17:29:57.015836  1860 net.cpp:165] Memory required for data: 3979180544
I0613 17:29:57.015844  1860 layer_factory.hpp:77] Creating layer fire7/squeeze1x1
I0613 17:29:57.015861  1860 net.cpp:100] Creating Layer fire7/squeeze1x1
I0613 17:29:57.015869  1860 net.cpp:434] fire7/squeeze1x1 <- fire6/concat
I0613 17:29:57.015882  1860 net.cpp:408] fire7/squeeze1x1 -> fire7/squeeze1x1
I0613 17:29:57.016641  1860 net.cpp:150] Setting up fire7/squeeze1x1
I0613 17:29:57.016659  1860 net.cpp:157] Top shape: 128 48 16 14 (1376256)
I0613 17:29:57.016667  1860 net.cpp:165] Memory required for data: 3984685568
I0613 17:29:57.016687  1860 layer_factory.hpp:77] Creating layer fire7/relu_squeeze1x1
I0613 17:29:57.016705  1860 net.cpp:100] Creating Layer fire7/relu_squeeze1x1
I0613 17:29:57.016715  1860 net.cpp:434] fire7/relu_squeeze1x1 <- fire7/squeeze1x1
I0613 17:29:57.016726  1860 net.cpp:395] fire7/relu_squeeze1x1 -> fire7/squeeze1x1 (in-place)
I0613 17:29:57.016738  1860 net.cpp:150] Setting up fire7/relu_squeeze1x1
I0613 17:29:57.016754  1860 net.cpp:157] Top shape: 128 48 16 14 (1376256)
I0613 17:29:57.016762  1860 net.cpp:165] Memory required for data: 3990190592
I0613 17:29:57.016772  1860 layer_factory.hpp:77] Creating layer fire7/squeeze1x1_fire7/relu_squeeze1x1_0_split
I0613 17:29:57.016782  1860 net.cpp:100] Creating Layer fire7/squeeze1x1_fire7/relu_squeeze1x1_0_split
I0613 17:29:57.016790  1860 net.cpp:434] fire7/squeeze1x1_fire7/relu_squeeze1x1_0_split <- fire7/squeeze1x1
I0613 17:29:57.016803  1860 net.cpp:408] fire7/squeeze1x1_fire7/relu_squeeze1x1_0_split -> fire7/squeeze1x1_fire7/relu_squeeze1x1_0_split_0
I0613 17:29:57.016814  1860 net.cpp:408] fire7/squeeze1x1_fire7/relu_squeeze1x1_0_split -> fire7/squeeze1x1_fire7/relu_squeeze1x1_0_split_1
I0613 17:29:57.016902  1860 net.cpp:150] Setting up fire7/squeeze1x1_fire7/relu_squeeze1x1_0_split
I0613 17:29:57.016916  1860 net.cpp:157] Top shape: 128 48 16 14 (1376256)
I0613 17:29:57.016926  1860 net.cpp:157] Top shape: 128 48 16 14 (1376256)
I0613 17:29:57.016933  1860 net.cpp:165] Memory required for data: 4001200640
I0613 17:29:57.016942  1860 layer_factory.hpp:77] Creating layer fire7/expand1x1
I0613 17:29:57.016957  1860 net.cpp:100] Creating Layer fire7/expand1x1
I0613 17:29:57.016965  1860 net.cpp:434] fire7/expand1x1 <- fire7/squeeze1x1_fire7/relu_squeeze1x1_0_split_0
I0613 17:29:57.016978  1860 net.cpp:408] fire7/expand1x1 -> fire7/expand1x1
I0613 17:29:57.017633  1860 net.cpp:150] Setting up fire7/expand1x1
I0613 17:29:57.017649  1860 net.cpp:157] Top shape: 128 192 16 14 (5505024)
I0613 17:29:57.017658  1860 net.cpp:165] Memory required for data: 4023220736
I0613 17:29:57.017670  1860 layer_factory.hpp:77] Creating layer fire7/relu_expand1x1
I0613 17:29:57.017683  1860 net.cpp:100] Creating Layer fire7/relu_expand1x1
I0613 17:29:57.017691  1860 net.cpp:434] fire7/relu_expand1x1 <- fire7/expand1x1
I0613 17:29:57.017702  1860 net.cpp:395] fire7/relu_expand1x1 -> fire7/expand1x1 (in-place)
I0613 17:29:57.017715  1860 net.cpp:150] Setting up fire7/relu_expand1x1
I0613 17:29:57.017726  1860 net.cpp:157] Top shape: 128 192 16 14 (5505024)
I0613 17:29:57.017734  1860 net.cpp:165] Memory required for data: 4045240832
I0613 17:29:57.017741  1860 layer_factory.hpp:77] Creating layer fire7/expand3x3
I0613 17:29:57.017757  1860 net.cpp:100] Creating Layer fire7/expand3x3
I0613 17:29:57.017767  1860 net.cpp:434] fire7/expand3x3 <- fire7/squeeze1x1_fire7/relu_squeeze1x1_0_split_1
I0613 17:29:57.017779  1860 net.cpp:408] fire7/expand3x3 -> fire7/expand3x3
I0613 17:29:57.019187  1860 net.cpp:150] Setting up fire7/expand3x3
I0613 17:29:57.019203  1860 net.cpp:157] Top shape: 128 192 16 14 (5505024)
I0613 17:29:57.019212  1860 net.cpp:165] Memory required for data: 4067260928
I0613 17:29:57.019224  1860 layer_factory.hpp:77] Creating layer fire7/relu_expand3x3
I0613 17:29:57.019235  1860 net.cpp:100] Creating Layer fire7/relu_expand3x3
I0613 17:29:57.019245  1860 net.cpp:434] fire7/relu_expand3x3 <- fire7/expand3x3
I0613 17:29:57.019256  1860 net.cpp:395] fire7/relu_expand3x3 -> fire7/expand3x3 (in-place)
I0613 17:29:57.019269  1860 net.cpp:150] Setting up fire7/relu_expand3x3
I0613 17:29:57.019280  1860 net.cpp:157] Top shape: 128 192 16 14 (5505024)
I0613 17:29:57.019287  1860 net.cpp:165] Memory required for data: 4089281024
I0613 17:29:57.019295  1860 layer_factory.hpp:77] Creating layer fire7/concat
I0613 17:29:57.019306  1860 net.cpp:100] Creating Layer fire7/concat
I0613 17:29:57.019315  1860 net.cpp:434] fire7/concat <- fire7/expand1x1
I0613 17:29:57.019325  1860 net.cpp:434] fire7/concat <- fire7/expand3x3
I0613 17:29:57.019335  1860 net.cpp:408] fire7/concat -> fire7/concat
I0613 17:29:57.019388  1860 net.cpp:150] Setting up fire7/concat
I0613 17:29:57.019402  1860 net.cpp:157] Top shape: 128 384 16 14 (11010048)
I0613 17:29:57.019409  1860 net.cpp:165] Memory required for data: 4133321216
I0613 17:29:57.019418  1860 layer_factory.hpp:77] Creating layer fire8/squeeze1x1
I0613 17:29:57.019433  1860 net.cpp:100] Creating Layer fire8/squeeze1x1
I0613 17:29:57.019440  1860 net.cpp:434] fire8/squeeze1x1 <- fire7/concat
I0613 17:29:57.019453  1860 net.cpp:408] fire8/squeeze1x1 -> fire8/squeeze1x1
I0613 17:29:57.022425  1860 net.cpp:150] Setting up fire8/squeeze1x1
I0613 17:29:57.022449  1860 net.cpp:157] Top shape: 128 64 16 14 (1835008)
I0613 17:29:57.022457  1860 net.cpp:165] Memory required for data: 4140661248
I0613 17:29:57.022469  1860 layer_factory.hpp:77] Creating layer fire8/relu_squeeze1x1
I0613 17:29:57.022481  1860 net.cpp:100] Creating Layer fire8/relu_squeeze1x1
I0613 17:29:57.022490  1860 net.cpp:434] fire8/relu_squeeze1x1 <- fire8/squeeze1x1
I0613 17:29:57.022501  1860 net.cpp:395] fire8/relu_squeeze1x1 -> fire8/squeeze1x1 (in-place)
I0613 17:29:57.022514  1860 net.cpp:150] Setting up fire8/relu_squeeze1x1
I0613 17:29:57.022524  1860 net.cpp:157] Top shape: 128 64 16 14 (1835008)
I0613 17:29:57.022531  1860 net.cpp:165] Memory required for data: 4148001280
I0613 17:29:57.022541  1860 layer_factory.hpp:77] Creating layer fire8/squeeze1x1_fire8/relu_squeeze1x1_0_split
I0613 17:29:57.022552  1860 net.cpp:100] Creating Layer fire8/squeeze1x1_fire8/relu_squeeze1x1_0_split
I0613 17:29:57.022560  1860 net.cpp:434] fire8/squeeze1x1_fire8/relu_squeeze1x1_0_split <- fire8/squeeze1x1
I0613 17:29:57.022572  1860 net.cpp:408] fire8/squeeze1x1_fire8/relu_squeeze1x1_0_split -> fire8/squeeze1x1_fire8/relu_squeeze1x1_0_split_0
I0613 17:29:57.022585  1860 net.cpp:408] fire8/squeeze1x1_fire8/relu_squeeze1x1_0_split -> fire8/squeeze1x1_fire8/relu_squeeze1x1_0_split_1
I0613 17:29:57.022682  1860 net.cpp:150] Setting up fire8/squeeze1x1_fire8/relu_squeeze1x1_0_split
I0613 17:29:57.022696  1860 net.cpp:157] Top shape: 128 64 16 14 (1835008)
I0613 17:29:57.022706  1860 net.cpp:157] Top shape: 128 64 16 14 (1835008)
I0613 17:29:57.022713  1860 net.cpp:165] Memory required for data: 4162681344
I0613 17:29:57.022722  1860 layer_factory.hpp:77] Creating layer fire8/expand1x1
I0613 17:29:57.022737  1860 net.cpp:100] Creating Layer fire8/expand1x1
I0613 17:29:57.022744  1860 net.cpp:434] fire8/expand1x1 <- fire8/squeeze1x1_fire8/relu_squeeze1x1_0_split_0
I0613 17:29:57.022758  1860 net.cpp:408] fire8/expand1x1 -> fire8/expand1x1
I0613 17:29:57.023447  1860 net.cpp:150] Setting up fire8/expand1x1
I0613 17:29:57.023463  1860 net.cpp:157] Top shape: 128 256 16 14 (7340032)
I0613 17:29:57.023469  1860 net.cpp:165] Memory required for data: 4192041472
I0613 17:29:57.023480  1860 layer_factory.hpp:77] Creating layer fire8/relu_expand1x1
I0613 17:29:57.023491  1860 net.cpp:100] Creating Layer fire8/relu_expand1x1
I0613 17:29:57.023500  1860 net.cpp:434] fire8/relu_expand1x1 <- fire8/expand1x1
I0613 17:29:57.023509  1860 net.cpp:395] fire8/relu_expand1x1 -> fire8/expand1x1 (in-place)
I0613 17:29:57.023519  1860 net.cpp:150] Setting up fire8/relu_expand1x1
I0613 17:29:57.023530  1860 net.cpp:157] Top shape: 128 256 16 14 (7340032)
I0613 17:29:57.023536  1860 net.cpp:165] Memory required for data: 4221401600
I0613 17:29:57.023543  1860 layer_factory.hpp:77] Creating layer fire8/expand3x3
I0613 17:29:57.023561  1860 net.cpp:100] Creating Layer fire8/expand3x3
I0613 17:29:57.023568  1860 net.cpp:434] fire8/expand3x3 <- fire8/squeeze1x1_fire8/relu_squeeze1x1_0_split_1
I0613 17:29:57.023581  1860 net.cpp:408] fire8/expand3x3 -> fire8/expand3x3
I0613 17:29:57.027967  1860 net.cpp:150] Setting up fire8/expand3x3
I0613 17:29:57.027992  1860 net.cpp:157] Top shape: 128 256 16 14 (7340032)
I0613 17:29:57.028000  1860 net.cpp:165] Memory required for data: 4250761728
I0613 17:29:57.028017  1860 layer_factory.hpp:77] Creating layer fire8/relu_expand3x3
I0613 17:29:57.028030  1860 net.cpp:100] Creating Layer fire8/relu_expand3x3
I0613 17:29:57.028039  1860 net.cpp:434] fire8/relu_expand3x3 <- fire8/expand3x3
I0613 17:29:57.028050  1860 net.cpp:395] fire8/relu_expand3x3 -> fire8/expand3x3 (in-place)
I0613 17:29:57.028064  1860 net.cpp:150] Setting up fire8/relu_expand3x3
I0613 17:29:57.028074  1860 net.cpp:157] Top shape: 128 256 16 14 (7340032)
I0613 17:29:57.028082  1860 net.cpp:165] Memory required for data: 4280121856
I0613 17:29:57.028090  1860 layer_factory.hpp:77] Creating layer fire8/concat
I0613 17:29:57.028100  1860 net.cpp:100] Creating Layer fire8/concat
I0613 17:29:57.028108  1860 net.cpp:434] fire8/concat <- fire8/expand1x1
I0613 17:29:57.028118  1860 net.cpp:434] fire8/concat <- fire8/expand3x3
I0613 17:29:57.028128  1860 net.cpp:408] fire8/concat -> fire8/concat
I0613 17:29:57.028192  1860 net.cpp:150] Setting up fire8/concat
I0613 17:29:57.028204  1860 net.cpp:157] Top shape: 128 512 16 14 (14680064)
I0613 17:29:57.028213  1860 net.cpp:165] Memory required for data: 4338842112
I0613 17:29:57.028220  1860 layer_factory.hpp:77] Creating layer fire9/squeeze1x1
I0613 17:29:57.028236  1860 net.cpp:100] Creating Layer fire9/squeeze1x1
I0613 17:29:57.028244  1860 net.cpp:434] fire9/squeeze1x1 <- fire8/concat
I0613 17:29:57.028255  1860 net.cpp:408] fire9/squeeze1x1 -> fire9/squeeze1x1
I0613 17:29:57.029142  1860 net.cpp:150] Setting up fire9/squeeze1x1
I0613 17:29:57.029160  1860 net.cpp:157] Top shape: 128 64 16 14 (1835008)
I0613 17:29:57.029166  1860 net.cpp:165] Memory required for data: 4346182144
I0613 17:29:57.029180  1860 layer_factory.hpp:77] Creating layer fire9/relu_squeeze1x1
I0613 17:29:57.029197  1860 net.cpp:100] Creating Layer fire9/relu_squeeze1x1
I0613 17:29:57.029207  1860 net.cpp:434] fire9/relu_squeeze1x1 <- fire9/squeeze1x1
I0613 17:29:57.029217  1860 net.cpp:395] fire9/relu_squeeze1x1 -> fire9/squeeze1x1 (in-place)
I0613 17:29:57.029229  1860 net.cpp:150] Setting up fire9/relu_squeeze1x1
I0613 17:29:57.029239  1860 net.cpp:157] Top shape: 128 64 16 14 (1835008)
I0613 17:29:57.029247  1860 net.cpp:165] Memory required for data: 4353522176
I0613 17:29:57.029255  1860 layer_factory.hpp:77] Creating layer fire9/squeeze1x1_fire9/relu_squeeze1x1_0_split
I0613 17:29:57.029265  1860 net.cpp:100] Creating Layer fire9/squeeze1x1_fire9/relu_squeeze1x1_0_split
I0613 17:29:57.029273  1860 net.cpp:434] fire9/squeeze1x1_fire9/relu_squeeze1x1_0_split <- fire9/squeeze1x1
I0613 17:29:57.029284  1860 net.cpp:408] fire9/squeeze1x1_fire9/relu_squeeze1x1_0_split -> fire9/squeeze1x1_fire9/relu_squeeze1x1_0_split_0
I0613 17:29:57.029295  1860 net.cpp:408] fire9/squeeze1x1_fire9/relu_squeeze1x1_0_split -> fire9/squeeze1x1_fire9/relu_squeeze1x1_0_split_1
I0613 17:29:57.029377  1860 net.cpp:150] Setting up fire9/squeeze1x1_fire9/relu_squeeze1x1_0_split
I0613 17:29:57.029389  1860 net.cpp:157] Top shape: 128 64 16 14 (1835008)
I0613 17:29:57.029398  1860 net.cpp:157] Top shape: 128 64 16 14 (1835008)
I0613 17:29:57.029407  1860 net.cpp:165] Memory required for data: 4368202240
I0613 17:29:57.029413  1860 layer_factory.hpp:77] Creating layer fire9/expand1x1
I0613 17:29:57.029429  1860 net.cpp:100] Creating Layer fire9/expand1x1
I0613 17:29:57.029438  1860 net.cpp:434] fire9/expand1x1 <- fire9/squeeze1x1_fire9/relu_squeeze1x1_0_split_0
I0613 17:29:57.029449  1860 net.cpp:408] fire9/expand1x1 -> fire9/expand1x1
I0613 17:29:57.030122  1860 net.cpp:150] Setting up fire9/expand1x1
I0613 17:29:57.030138  1860 net.cpp:157] Top shape: 128 256 16 14 (7340032)
I0613 17:29:57.030145  1860 net.cpp:165] Memory required for data: 4397562368
I0613 17:29:57.030156  1860 layer_factory.hpp:77] Creating layer fire9/relu_expand1x1
I0613 17:29:57.030169  1860 net.cpp:100] Creating Layer fire9/relu_expand1x1
I0613 17:29:57.030176  1860 net.cpp:434] fire9/relu_expand1x1 <- fire9/expand1x1
I0613 17:29:57.030189  1860 net.cpp:395] fire9/relu_expand1x1 -> fire9/expand1x1 (in-place)
I0613 17:29:57.030200  1860 net.cpp:150] Setting up fire9/relu_expand1x1
I0613 17:29:57.030210  1860 net.cpp:157] Top shape: 128 256 16 14 (7340032)
I0613 17:29:57.030217  1860 net.cpp:165] Memory required for data: 4426922496
I0613 17:29:57.030225  1860 layer_factory.hpp:77] Creating layer fire9/expand3x3
I0613 17:29:57.030238  1860 net.cpp:100] Creating Layer fire9/expand3x3
I0613 17:29:57.030247  1860 net.cpp:434] fire9/expand3x3 <- fire9/squeeze1x1_fire9/relu_squeeze1x1_0_split_1
I0613 17:29:57.030258  1860 net.cpp:408] fire9/expand3x3 -> fire9/expand3x3
I0613 17:29:57.034322  1860 net.cpp:150] Setting up fire9/expand3x3
I0613 17:29:57.034345  1860 net.cpp:157] Top shape: 128 256 16 14 (7340032)
I0613 17:29:57.034353  1860 net.cpp:165] Memory required for data: 4456282624
I0613 17:29:57.034366  1860 layer_factory.hpp:77] Creating layer fire9/relu_expand3x3
I0613 17:29:57.034381  1860 net.cpp:100] Creating Layer fire9/relu_expand3x3
I0613 17:29:57.034390  1860 net.cpp:434] fire9/relu_expand3x3 <- fire9/expand3x3
I0613 17:29:57.034400  1860 net.cpp:395] fire9/relu_expand3x3 -> fire9/expand3x3 (in-place)
I0613 17:29:57.034413  1860 net.cpp:150] Setting up fire9/relu_expand3x3
I0613 17:29:57.034423  1860 net.cpp:157] Top shape: 128 256 16 14 (7340032)
I0613 17:29:57.034430  1860 net.cpp:165] Memory required for data: 4485642752
I0613 17:29:57.034437  1860 layer_factory.hpp:77] Creating layer fire9/concat
I0613 17:29:57.034449  1860 net.cpp:100] Creating Layer fire9/concat
I0613 17:29:57.034456  1860 net.cpp:434] fire9/concat <- fire9/expand1x1
I0613 17:29:57.034466  1860 net.cpp:434] fire9/concat <- fire9/expand3x3
I0613 17:29:57.034476  1860 net.cpp:408] fire9/concat -> fire9/concat
I0613 17:29:57.034528  1860 net.cpp:150] Setting up fire9/concat
I0613 17:29:57.034540  1860 net.cpp:157] Top shape: 128 512 16 14 (14680064)
I0613 17:29:57.034548  1860 net.cpp:165] Memory required for data: 4544363008
I0613 17:29:57.034555  1860 layer_factory.hpp:77] Creating layer drop9
I0613 17:29:57.034570  1860 net.cpp:100] Creating Layer drop9
I0613 17:29:57.034579  1860 net.cpp:434] drop9 <- fire9/concat
I0613 17:29:57.034590  1860 net.cpp:395] drop9 -> fire9/concat (in-place)
I0613 17:29:57.034637  1860 net.cpp:150] Setting up drop9
I0613 17:29:57.034648  1860 net.cpp:157] Top shape: 128 512 16 14 (14680064)
I0613 17:29:57.034656  1860 net.cpp:165] Memory required for data: 4603083264
I0613 17:29:57.034662  1860 layer_factory.hpp:77] Creating layer pool_
I0613 17:29:57.034674  1860 net.cpp:100] Creating Layer pool_
I0613 17:29:57.034682  1860 net.cpp:434] pool_ <- fire9/concat
I0613 17:29:57.034693  1860 net.cpp:408] pool_ -> pool_
I0613 17:29:57.034739  1860 net.cpp:150] Setting up pool_
I0613 17:29:57.034749  1860 net.cpp:157] Top shape: 128 512 1 1 (65536)
I0613 17:29:57.034756  1860 net.cpp:165] Memory required for data: 4603345408
I0613 17:29:57.034765  1860 layer_factory.hpp:77] Creating layer pool__pool__0_split
I0613 17:29:57.034775  1860 net.cpp:100] Creating Layer pool__pool__0_split
I0613 17:29:57.034783  1860 net.cpp:434] pool__pool__0_split <- pool_
I0613 17:29:57.034793  1860 net.cpp:408] pool__pool__0_split -> pool__pool__0_split_0
I0613 17:29:57.034804  1860 net.cpp:408] pool__pool__0_split -> pool__pool__0_split_1
I0613 17:29:57.034874  1860 net.cpp:150] Setting up pool__pool__0_split
I0613 17:29:57.034885  1860 net.cpp:157] Top shape: 128 512 1 1 (65536)
I0613 17:29:57.034894  1860 net.cpp:157] Top shape: 128 512 1 1 (65536)
I0613 17:29:57.034905  1860 net.cpp:165] Memory required for data: 4603869696
I0613 17:29:57.034914  1860 layer_factory.hpp:77] Creating layer fc
I0613 17:29:57.034929  1860 net.cpp:100] Creating Layer fc
I0613 17:29:57.034936  1860 net.cpp:434] fc <- pool__pool__0_split_0
I0613 17:29:57.034948  1860 net.cpp:408] fc -> pool10
I0613 17:29:57.092474  1860 net.cpp:150] Setting up fc
I0613 17:29:57.092509  1860 net.cpp:157] Top shape: 128 10575 (1353600)
I0613 17:29:57.092517  1860 net.cpp:165] Memory required for data: 4609284096
I0613 17:29:57.092532  1860 layer_factory.hpp:77] Creating layer pool10_fc_0_split
I0613 17:29:57.092547  1860 net.cpp:100] Creating Layer pool10_fc_0_split
I0613 17:29:57.092556  1860 net.cpp:434] pool10_fc_0_split <- pool10
I0613 17:29:57.092571  1860 net.cpp:408] pool10_fc_0_split -> pool10_fc_0_split_0
I0613 17:29:57.092586  1860 net.cpp:408] pool10_fc_0_split -> pool10_fc_0_split_1
I0613 17:29:57.092595  1860 net.cpp:408] pool10_fc_0_split -> pool10_fc_0_split_2
I0613 17:29:57.092689  1860 net.cpp:150] Setting up pool10_fc_0_split
I0613 17:29:57.092700  1860 net.cpp:157] Top shape: 128 10575 (1353600)
I0613 17:29:57.092707  1860 net.cpp:157] Top shape: 128 10575 (1353600)
I0613 17:29:57.092715  1860 net.cpp:157] Top shape: 128 10575 (1353600)
I0613 17:29:57.092721  1860 net.cpp:165] Memory required for data: 4625527296
I0613 17:29:57.092728  1860 layer_factory.hpp:77] Creating layer loss
I0613 17:29:57.092738  1860 net.cpp:100] Creating Layer loss
I0613 17:29:57.092746  1860 net.cpp:434] loss <- pool10_fc_0_split_0
I0613 17:29:57.092754  1860 net.cpp:434] loss <- label_data_1_split_0
I0613 17:29:57.092763  1860 net.cpp:408] loss -> loss
…
